training set loaded
validation set loaded
Model: "sequential"
_________________________________________________________________
 Layer (type)                Output Shape              Param #   
=================================================================
 inception_v3 (Functional)   (None, 2048)              21802784  
                                                                 
 batch_normalization_94 (Ba  (None, 2048)              8192      
 tchNormalization)                                               
                                                                 
 dense (Dense)               (None, 512)               1049088   
                                                                 
 dropout (Dropout)           (None, 512)               0         
                                                                 
 dense_1 (Dense)             (None, 400)               205200    
                                                                 
 dropout_1 (Dropout)         (None, 400)               0         
                                                                 
 dense_2 (Dense)             (None, 6)                 2406      
                                                                 
=================================================================
Total params: 23067670 (88.00 MB)
Trainable params: 1260790 (4.81 MB)
Non-trainable params: 21806880 (83.19 MB)
_________________________________________________________________
Epoch 1/50
197/197 - 38s - loss: 1.8029 - accuracy: 0.3408 - f1_m: 0.2461 - precision_m: 0.4074 - recall_m: 0.1820 - val_loss: 1.4302 - val_accuracy: 0.4767 - val_f1_m: 0.0798 - val_precision_m: 0.7009 - val_recall_m: 0.0429 - 38s/epoch - 191ms/step
…
