training set loaded
model loaded
Model: "model"
_________________________________________________________________
 Layer (type)                Output Shape              Param #   
=================================================================
 input_1 (InputLayer)        [(None, 128, 128, 3)]     0         
                                                                 
 cast_to_float32 (CastToFlo  (None, 128, 128, 3)       0         
 at32)                                                           
                                                                 
 normalization (Normalizati  (None, 128, 128, 3)       7         
 on)                                                             
                                                                 
 random_translation (Random  (None, 128, 128, 3)       0         
 Translation)                                                    
                                                                 
 random_flip (RandomFlip)    (None, 128, 128, 3)       0         
                                                                 
 random_rotation (RandomRot  (None, 128, 128, 3)       0         
 ation)                                                          
                                                                 
 resizing (Resizing)         (None, 224, 224, 3)       0         
                                                                 
 resnet101v2 (Functional)    (None, None, None, 2048   42626560  
                             )                                   
                                                                 
 global_average_pooling2d (  (None, 2048)              0         
 GlobalAveragePooling2D)                                         
                                                                 
 dropout (Dropout)           (None, 2048)              0         
                                                                 
 dense (Dense)               (None, 6)                 12294     
                                                                 
 classification_head_1 (Sof  (None, 6)                 0         
 tmax)                                                           
                                                                 
=================================================================
Total params: 42638861 (162.65 MB)
Trainable params: 42541190 (162.28 MB)
Non-trainable params: 97671 (381.53 KB)
_________________________________________________________________
 1/97 [....
…
