training set loaded
model loaded
Model: "model"
_________________________________________________________________
 Layer (type)                Output Shape              Param #   
=================================================================
 input_1 (InputLayer)        [(None, 128, 128, 3)]     0         
                                                                 
 cast_to_float32 (CastToFlo  (None, 128, 128, 3)       0         
 at32)                                                           
                                                                 
 normalization (Normalizati  (None, 128, 128, 3)       7         
 on)                                                             
                                                                 
 random_translation (Random  (None, 128, 128, 3)       0         
 Translation)                                                    
                                                                 
 random_flip (RandomFlip)    (None, 128, 128, 3)       0         
                                                                 
 random_rotation (RandomRot  (None, 128, 128, 3)       0         
 ation)                                                          
                                                                 
 resizing (Resizing)         (None, 224, 224, 3)       0         
                                                                 
 efficientnetb7 (Functional  (None, None, None, 2560   64097687  
 )                           )                                   
                                                                 
 global_average_pooling2d (  (None, 2560)              0         
 GlobalAveragePooling2D)                                         
                                                                 
 dense (Dense)               (None, 6)                 15366     
                                                                 
 classification_head_1 (Sof  (None, 6)                 0         
 tmax)                                                           
                                                                 
=================================================================
Total params: 64113060 (244.57 MB)
Trainable params: 63802326 (243.39 MB)
Non-trainable params: 310734 (1.19 MB)
_________________________________________________________________
 1/97 [.....
…
