training set loaded
validation set loaded
Model: "sequential"
_________________________________________________________________
 Layer (type)                Output Shape              Param #   
=================================================================
 vgg16 (Functional)          (None, 512)               14714688  
                                                                 
 batch_normalization (Batch  (None, 512)               2048      
 Normalization)                                                  
                                                                 
 dense (Dense)               (None, 512)               262656    
                                                                 
 dropout (Dropout)           (None, 512)               0         
                                                                 
 dense_1 (Dense)             (None, 400)               205200    
                                                                 
 dense_2 (Dense)             (None, 6)                 2406      
                                                                 
=================================================================
Total params: 15186998 (57.93 MB)
Trainable params: 471286 (1.80 MB)
Non-trainable params: 14715712 (56.14 MB)
_________________________________________________________________
Epoch 1/50
197/197 - 31s - loss: 1.3740 - accuracy: 0.4414 - f1_m: 0.3466 - precision_m: 0.5495 - recall_m: 0.2557 - val_loss: 1.3196 - val_accuracy: 0.4994 - val_f1_m: 0.1230 - val_precision_m: 0.8188 - val_recall_m: 0.0681 - 31s/epoch - 158ms/step
…
